Model-Backend/diabetes_ann_model1.pth (torch, 3904 bytes, 6 tensors)

0.weight f4 [16, 8]
00000000: e704 bebe 6788 7abf faa2 f33b b37d 0fbe
00000010: 6880 933e 1ba1 9a3e 1856 40be c60a 9cbf
00000020: 8dad 893e 0955 bf3e 2990 643e e711 9c3e
00000030: 2796 673e e21b 82bf eb6a 99bd 4989 db3e
00000040: e01c a4be 2758 60bf a948 2fbe e6b0 e1be
00000050: 1ac5 90be 3528 81be 5190 86bf 0be7 c73e
00000060: 211d 7abf fdcf 5cbf b995 e2be 5335 b43e
00000070: 33f0 57be 00d4 e639 43b8 dbbe 0726 35bf
00000080: 1b74 9bbf 3292 9cbf fd1b 6a3e 3212 6cbe
00000090: 1c22 833e 069f be3e 590e a0be 6d75 c4be
000000a0: f745 2c3d 3872 473f 2f41 69be cf5f 1d3d
000000b0: bdb2 433e c6e5 863d 7fcd e6bd 3ba0 8bbc
000000c0: 3271 d63e 941a fa3e 9cf1 80bd 6bc5 a73e
000000d0: f964 fc3e 1b01 153f ff0f 213f a72f 52be
000000e0: fc69 9cbe f0b8 43bf e4b4 0cbf f352 cc3e
000000f0: 1a2a 85bf 9c58 6fbf 2ded 8bbe 75b4 0b3f
00000100: b7b9 b3bc 556e 35bf 1834 fc3e a442 9bbe
00000110: 1b46 463e ec85 afbe 8b83 a3bb 9774 abbf
00000120: 8ce9 883e d418 253f 90b2 dabc 9028 533e
00000130: 769a 893e 73eb d73e c0ae dd3e 6e65 25bd
00000140: 1c59 033f cbf3 323f 8d8b 933c c0b3 a13e
00000150: 0fb5 1b3e f529 f23e 29b6 e13e 9388 183d
00000160: 2ba5 ebbd 3add 993f 9db7 ab3d 0a35 163e
00000170: 54b1 8fbc 63a7 963e 63f1 493e 7426 b7bd
00000180: 9a42 43be d87c 14bf 7f11 b23e 6716 fd3e
00000190: 5995 f23d 2bf4 13bf 2422 2bbd f3b1 7ebf
000001a0: 5d63 8cbd 41eb 34bf 1ec3 3bbd 126c c23e
000001b0: a886 cdbe f65a 9ebf d53a b7be 76bb 8a3e
000001c0: 5462 db3e 9ee4 2dbf 1e92 50be 5b5d aebe
000001d0: 527f 4ebd 51a4 743e 5d45 2f3f 4283 8b3c
000001e0: 2816 a8be f607 75bf fccd 17bf 0457 d93e
000001f0: 4a2b 58bf e023 34bf 3ace c7be 1049 233f
-0.37113115 -0.97864383 0.0074352 -0.14012794 0.28808904 0.3020104 -0.18782842 -1.2190788
0.2689022 0.37369564 0.22320618 0.30482408 0.22615872 -1.0164759 -0.07491096 0.42878178
-0.3205328 -0.8763451 -0.17117561 -0.44080275 -0.28275377 -0.25225988 -1.0512792 0.3904346
-0.977007 -0.86254865 -0.44254854 0.35196933 -0.21087722 0.0004402697 -0.42914018 -0.7076115
-1.2144808 -1.2232115 0.22862239 -0.23053816 0.2561196 0.372307 -0.31260946 -0.3837084
0.04205891 0.7790866 -0.22778772 0.03842145 0.19111152 0.065867946 -0.11269664 -0.017044177
0.41883236 0.48848403 -0.06296083 0.32767805 0.49295786 0.5820481 0.62915033 -0.2052599
-0.3054961 -0.7645407 -0.5496352 0.39907035 -1.0403473 -0.9349458 -0.27329388 0.5457223
-0.021939142 -0.7087148 0.49258494 -0.3032428 0.1936268 -0.34281862 -0.0049900464 -1.3394955
0.26740682 0.6449101 -0.026696473 0.20620942 0.26875657 0.4217182 0.43297386 -0.040379934
0.51307845 0.6990325 0.018010879 0.3158245 0.15205787 0.47297636 0.4408429 0.037239622
-0.11506113 1.2020638 0.08384631 0.1466867 -0.017540611 0.2942458 0.19720988 -0.08942881
-0.19068375 -0.58002996 0.34778973 0.49431154 0.11844892 -0.57794446 -0.041780606 -0.9949028
-0.068548895 -0.7067147 -0.045840375 0.37973076 -0.40141797 -1.2371509 -0.35787073 0.27096146
0.42848456 -0.6792697 -0.2036824 -0.340556 -0.05041439 0.23890807 0.68465215 0.017030362
-0.32829404 -0.9571527 -0.5929868 0.424492 -0.84441054 -0.7036724 -0.39024526 0.6378336

0.bias f4 [16]
00000000: 6f0b ed3d 82d8 de3e 8238 afbd a426 883e
00000010: 3faf 993e 5631 47bf 4ef7 2d3d 12e5 43be
00000020: cc14 39be ee7a 153e e7ee 9ebd f9b4 3cbe
00000030: c66d 893e 7d0c a5bd ed1e 00bf 11c8 9bbc
0.115744464 0.43524557 -0.085557 0.2659198 0.30016515 -0.77809656 0.042472176 -0.19130352
-0.1807434 0.14597675 -0.07760411 -0.1842841 0.26841563 -0.080590226 -0.5004719 -0.019016298

3.weight f4 [8, 16]
00000000: bc10 f23e 1a16 613d 0349 9a3e 4c06 203f
00000010: 3b6d 1d3f 577d b0be bb54 9bbe d96c 103f
00000020: 0789 c43e 9aac 933c 6273 6a3d c161 2cbe
00000030: 1b13 d43e 414c ea3e 10b9 ed3d 1ad1 713f
00000040: f464 063f ae9a aebc 97b8 383f 1b04 6f3f
00000050: 7a82 8a3f 8b82 d0be edfa 64be e11e 5e3f
00000060: e175 183f 6bcc ba3d 0e16 b5bd 96cc ebbd
00000070: c57c 973e ea36 ef3e a82f a7be bcb8 6a3f
00000080: 59be b53e 1eb8 94bf cf08 913e 51e7 343f
00000090: ff65 6e3f 72fd 14be 39ca 903e 001f a13e
000000a0: 4ed5 263f 3e83 be3c 8fdd 4bbd 757d 673d
000000b0: e54f ce3e d732 503e f022 95bd af71 fe3e
000000c0: b8ed 223f b03c 873e 6a9f 8a3e 9000 503e
000000d0: d64d 163e b7d3 a5bd 0330 83bf 6af9 243f
000000e0: c372 b63e a1ce 82be 42fa 32bd 6b6d 8dbe
000000f0: d1eb f83e 03ff ce3e 6351 b8bd 3457 9a3f
00000100: 9cbc 813e 010d e0be 6293 313f dcd4 75be
00000110: afe1 c9bd baed 0fbe c82a 3fbe cafe b6bd
00000120: cc7f da3e 55ec b8be d9c4 80be cae0 a6be
00000130: 57a3 a13e 8384 76be 9708 2cbe a1c4 9dbe
00000140: 9e10 f23e 6ea4 253e d4de 143f 4ea4 0b3f
00000150: babb 823f 9d5d 9bbe 0224 ecbd 91bb 183f
00000160: a13a 413f d6b6 d7bd 102d 6dbd 7b7e e1bd
00000170: 59fd 163f 1ec2 e83e 37bb 97be 8524 513f
00000180: f5f8 5fbf a55c 303d 8fd6 a8be 39ef 6ebf
00000190: df47 63bf 3efd 123f f5f4 793e e38b 27bf
000001a0: 9fe2 c1be 6280 993e 4256 db3e a869 213f
000001b0: 3b64 14bf 2a65 60be e34a c93e 980f 52bf
000001c0: 9073 093e 3c5a 093f 2be6 033e b491 353e
000001d0: e564 a1be 9387 1d3f c93c aa3e cc49 48be
000001e0: b2a1 4ebe 4734 4a3f 2217 213f e4a1 b33e
000001f0: 27d2 1ebd 0a11 b33a 8a42 463f ed43 cdbe
0.47278392 0.05495272 0.3013383 0.6250961 0.614948 -0.34470627 -0.30338082 0.5641609
0.38385794 0.018026639 0.057238944 -0.16834165 0.41420826 0.45761302 0.116075635 0.9445969
0.5249779 -0.021313991 0.7215666 0.9336564 1.0821068 -0.40724596 -0.22361346 0.8676587
0.5955487 0.09121021 -0.08842097 -0.11513631 0.2958738 0.46721584 -0.32653546 0.9168813
0.35496786 -1.1618688 0.28327033 0.7066546 0.93124384 -0.14549807 0.28279284 0.31468964
0.6516923 0.02325594 -0.04977184 0.05651613 0.4029533 0.20331894 -0.072820544 0.4969611
0.6364398 0.26413488 0.27074748 0.20312715 0.1467813 -0.08097022 -1.0249027 0.64443076
0.3563443 -0.2554827 -0.043695696 -0.27622542 0.48617414 0.40428934 -0.08999898 1.2057862
0.2533921 -0.4375992 0.69365513 -0.2400698 -0.09857499 -0.14055529 -0.18668664 -0.08935316
0.42675626 -0.36117807 -0.25150183 -0.32593375 0.3156993 -0.24073987 -0.16800152 -0.30814078
0.47278303 0.16176006 0.5815251 0.54547584 1.021354 -0.3034486 -0.115303054 0.59661204
0.75480086 -0.1053292 -0.057904303 -0.11010452 0.5898033 0.454606 -0.2963502 0.8169635
-0.87489253 0.043057103 -0.32976195 -0.93333775 -0.8878154 0.57417667 0.2440985 -0.65447825
-0.3786821 0.2998076 0.42839247 0.63051844 -0.5796544 -0.21913591 0.39314947 -0.82055044
0.1342299 0.5365331 0.12880771 0.17731363 -0.3152229 0.61534995 0.332495 -0.19559401
-0.2017887 0.7898602 0.6292592 0.3508445 -0.038774636 0.0013661694 0.7744528 -0.40090886

3.bias f4 [8]
00000000: 49b2 413e a3eb 6a3d f0e4 803e 2941 4f3e
00000010: b89b d7bd b2b7 473e e376 453f 56a5 793f
0.18915667 0.057353627 0.25174665 0.202397 -0.10527748 0.19503668 0.7713453 0.9751791

5.weight f4 [3, 8]
00000000: da05 9a3e 189b d93e 4302 843f 3710 5d3f
00000010: 8304 8a3e c563 5f3f 4122 5fbf 9d68 9e3e
00000020: 7127 1dbf 3dac 4fbf 5732 51bf 3668 c1be
00000030: b04a 6d3d a9f1 2ebf 7569 a6bf 322f 04bf
00000040: d0d5 b13d 3e2d d7be 6332 63bf 22d2 47bf
00000050: b46f dbbe d058 2fbf da8b 893f 0914 393f
0.3008259 0.4250114 1.031319 0.86352867 0.26956567 0.8726161 -0.8716164 0.3093919
-0.6138831 -0.8112219 -0.8171744 -0.3777482 0.057932556 -0.68337494 -1.3000933 -0.51634514
0.086833596 -0.42026705 -0.8874876 -0.7805501 -0.4285866 -0.6849489 1.0745804 0.72296196

5.bias f4 [3]
00000000: 14d4 8ebe a01f 10bf 7a97 0b3e
-0.27896178 -0.56298256 0.13632002
